resources/mnist/weights-5-best.model (torch_old, 438663 bytes, 6 tensors)

0.weight f4 [128, 784]
000000 b2 9e 59 bb 88 df 7b bc 10 6d f2 3c a9 65 01 bd
       -0.0033206162 -0.015373118 0.02959302 -0.03159109
000010 51 5d 0d 3d bc c9 e1 bc 5b 10 04 bd 92 54 6b 3c
       0.03451282 -0.027562015 -0.03224216 0.014363425
000020 ed db 5b 3c 57 5f 70 3c 8d 0e f9 3c 99 b9 24 bc
       0.013419134 0.014671168 0.030402446 -0.010054016
000030 19 0a 3a 39 5c 0d b7 bc eb f7 b7 3b 4f 7d 24 bc
       0.00017742104 -0.022345237 0.005614271 -0.0100396415
000040 7d ae 46 bc 33 5a bf bc 09 0f 29 3b 0a 6c 90 bc
       -0.012126562 -0.02335844 0.0025796315 -0.017629642
000050 6f e5 0c 3c 1a 3e 0e 3c 73 ed 59 bc 76 d8 a8 39
       0.008599623 0.008681798 -0.013301241 0.00032204733
000060 6f 9e e5 3c 45 65 ab bc f5 04 2f 3c a3 09 d0 3c
       0.028029649 -0.020922313 0.010682334 0.02539522
000070 fb d5 e9 3c 73 28 11 3c a1 08 d1 3b f1 66 98 3c
       0.028544417 0.0088597415 0.0063792025 0.018603774
000080 b2 f7 71 bc a5 7b 7c bc 46 1f 45 bc eb d3 f5 bc
       -0.014768528 -0.0154103385 -0.012031382 -0.030008277
000090 da 32 9e bc db 68 04 bb b1 e4 82 bc cb 8e 2b bc
       -0.019311357 -0.00202041 -0.01597819 -0.010471056
0000a0 94 93 bd 3c b4 e9 01 bd 9b 3b c2 3c 6e 23 08 bc
       0.02314166 -0.031717017 0.023710063 -0.008309228
0000b0 12 d5 1e 3c 7e 96 e6 3b 70 15 57 bc 75 51 f7 3a
       0.009694355 0.007036983 -0.01312767 0.001886888
0000c0 f0 ac 7f bc d4 86 72 bc a9 8e 1f 3c 94 53 cf 3c
       -0.015605196 -0.014802653 0.009738603 0.025308408
0000d0 51 87 61 3b 6d 7a 05 bd 31 8c 25 3c f7 6c 76 bb
       0.003441293 -0.032587457 0.010104225 -0.003760157
0000e0 f1 6a c0 bb 6c d9 89 39 f0 78 06 3d 41 15 90 3c
       -0.0058721234 0.00026292668 0.03283018 0.01758826
0000f0 b7 ee d1 bc b1 6f c7 bb 83 98 dc bc a6 61 28 3c
       -0.025626523 -0.0060863127 -0.026928192 0.010277187
000100 c8 05 cf 3c 4f ee 0d bc ad 1e 5e bc 90 c9 e7 3c
       0.025271311 -0.008662774 -0.013557118 0.028294355
000110 b8 3b 09 3d 48 01 c0 3b 80 d6 95 bc 30 6d b6 bc
       0.033504218 0.0058595277 -0.018290758 -0.022268862
000120 78 a2 61 bc 7a 88 f7 3c f4 ff e8 bc ae 23 85 3c
       -0.013771646 0.030216444 -0.02844236 0.016252365
000130 1a 22 05 bc 3e c5 72 bc 3b d4 5e 3c 4b 30 17 3b
       -0.008125806 -0.014817534 0.013600404 0.0023069556
000140 26 09 08 bc 4a 34 0b ba 17 61 e2 3c ec 05 d6 3b
       -0.008302962 -0.0005310221 0.027634187 0.0065314677
000150 e4 84 8d 3c 45 2d 0b bc 56 4e f3 3c 9e 82 34 bb
       0.017275281 -0.00849468 0.02970044 -0.0027543674
000160 3a 11 a5 bb fb f5 6b bc 0b c3 09 bd 8d c1 ed 3c
       -0.005037454 -0.014401908 -0.033633273 0.029022956
000170 8c b8 18 bd 13 2b c7 3c 80 cc cb bc bd 99 54 3b
       -0.037285373 0.024312532 -0.024877787 0.0032440268
000180 ef 04 7f 3c 82 b5 35 bb 52 b7 50 3d e7 fc e4 bc
       0.015565141 -0.0027726595 0.050956078 -0.027952624
000190 30 58 ba bc 04 55 dc 3c 9e a8 1b bc fb 29 b5 bc
       -0.02274713 0.026896007 -0.009500651 -0.022114744
0001a0 74 14 0e 3d 47 a5 82 bc 53 44 1d 3d 1e 58 36 bc
       0.034687474 -0.015947951 0.038395237 -0.011129407
0001b0 36 0b 7e 3c 22 20 f0 3c e7 05 e7 bc 6f 7b 29 bc
       0.015505603 0.029312197 -0.028201057 -0.01034437
0001c0 ab 44 28 bc f4 17 e4 3b 22 37 34 bc 7a c0 95 3c
       -0.010270278 0.0069608632 -0.010999473 0.018280257
0001d0 18 4b b6 3c b7 4b 94 bb 1f 49 72 bc 9f 94 3f bc
       0.022252604 -0.0045256275 -0.014787941 -0.011693149
0001e0 13 fb 0d bd c3 b5 c4 3c 83 8e c4 bc 4d dc 1b 3b
       -0.03466327 0.024012452 -0.023993736 0.0023782433
0001f0 53 ad 86 3c 45 a6 a6 3d e6 56 5b 3c b9 c5 3d bc
       0.01644007 0.08137182 0.013387417 -0.011582785
000200 f9 bb fb bb 3c 44 29 bd 9b ad 4b bd 93 bf 99 bc
       -0.00768232 -0.04132484 -0.04972611 -0.018768108
000210 f6 bc 22 3b d0 3e a3 3c 2c 4f da bc 90 70 03 3d
       0.0024831868 0.019927412 -0.02664908 0.03208977
000220 5e 9e 2b bd f2 99 d6 3c 6d 63 69 bb d5 29 bf bc
       -0.041899078 0.026196454 -0.003561224 -0.023335377
000230 eb 44 e4 3c 63 e6 96 3c 97 1a 0d 3d 24 82 7a 3c
       0.027864894 0.018420404 0.034449186 0.015289817
000240 f7 90 f5 bc 2d e9 ae 3c 0a 6e b1 bb c6 e0 8f 3c
       -0.029976351 0.021351421 -0.005414729 0.017563235
000250 45 d9 a0 bb 44 30 f3 bc de f7 83 bc 70 a5 1f 3d
       -0.004908713 -0.0296861 -0.016109403 0.038976133
000260 2a 48 f2 3c 76 a8 3d 3d 75 b5 5d 3d a5 0e 2d 3d
       0.029575426 0.046303235 0.05412813 0.042250294
000270 55 4c 11 bc 64 e3 a3 bc 0b b3 83 bd d4 41 08 bd
       -0.008868297 -0.02000589 -0.06430634 -0.033265904
000280 e5 29 23 3d ed da c8 3c 55 2b ab 3b 91 5e 33 bd
       0.039834876 0.024518454 0.0052236714 -0.043791357
000290 48 af 67 b9 f0 37 ed 3c 51 56 09 3d 99 ba 2e 3c
       -0.00022095174 0.028957337 0.033529583 0.010664606
0002a0 eb cc db 3c ad 06 97 3c fb f0 c8 bb 30 e7 f2 3c
       0.026831111 0.0184358 -0.0061322427 0.029651254
0002b0 7e a9 ac 3c 08 36 54 3c fb ab 4a bc 61 9e 01 3b
       0.021076914 0.012952335 -0.012370105 0.001977824
0002c0 c0 02 d6 bc db 6d f6 bc 17 8b e0 3c cb 7a 04 3d
       -0.026124358 -0.03008168 0.027410073 0.032343667
0002d0 7c 21 86 3b 99 65 00 3d 68 61 9f bc d9 63 a3 3c
       0.004093347 0.03134689 -0.019455627 0.019945072
0002e0 1d cc 22 bc ae a8 07 bd 73 fc 30 bc e2 f6 f4 bc
       -0.00993636 -0.03311985 -0.010802376 -0.02990288
0002f0 61 1a 5d 3b d0 ec 70 bc b4 66 06 bc 61 e8 d9 3a
       0.0033737647 -0.014704898 -0.008203197 0.001662504
000300 8b 1a 20 bd a7 2d 05 3d 59 27 f1 bb 17 3b b6 3a
       -0.039087813 0.03251424 -0.007359427 0.0013903108
000310 6b f3 c8 3c af ff eb 3b a5 3a da 3c 98 0c a4 bc
       0.024530133 0.0072021107 0.026639292 -0.020025536
000320 d4 ce 98 bb a4 4e 5e bd 3d 2c fa bc 95 33 4d bd
       -0.0046633277 -0.054274216 -0.030538673 -0.05009802
000330 6b 0b bc bc aa 64 fd bc 1f c9 f8 3b 64 32 16 3b
       -0.022954663 -0.03093179 0.007592335 0.0022918219
000340 7f 52 12 bc 73 9e c0 3c 41 05 71 bd 75 b9 ac bc
       -0.008930801 0.023513054 -0.0588429 -0.021084527
000350 7c c0 13 3b 00 10 6f 3d 0b 69 3f 3c 34 2e ae 3b
       0.002254515 0.05836487 0.011682759 0.0053155664
000360 d0 f4 65 bd b5 4c f0 3c fb c5 ab 3c b0 75 4a bc
       -0.056141675 0.029333452 0.020968428 -0.01235716
000370 96 9f bc 3b c6 9d 09 bc 8a 79 53 3c 36 ab d4 3c
       0.005756329 -0.0083994325 0.012907395 0.025960546
000380 11 dd 13 bd fd b7 7a bc a1 35 2c 3c 21 fb 72 bc
       -0.036099497 -0.015302655 0.010510833 -0.014830382
000390 86 e6 70 3c 33 0f a5 bb ef 4d 24 bd 58 a3 35 bc
       0.014703399 -0.0050372123 -0.040113386 -0.0110863075
0003a0 76 ec 4f 3c b9 69 55 3c 4e c5 1d 3d 20 1e 89 bb
       0.012690654 0.0130256945 0.038518243 -0.0041844994
0003b0 44 fc eb 3c ea 99 07 bc ed 5a e0 bc cd 23 53 bb
       0.028806813 -0.008276442 -0.027387107 -0.0032217384
0003c0 d2 18 bc 3b 56 e5 ae 3c d9 b6 0b ba 5b 6f 2e bd
       0.0057402635 0.02134959 -0.00053296756 -0.042586666
0003d0 51 97 84 3b 03 dc 2b bd e5 e8 4a bc 61 63 1f 3c
       0.0040463586 -0.041957866 -0.012384628 0.009728284
0003e0 31 46 3f 3d c1 97 0c 3c fc ba 02 bd ab b6 c9 3c
       0.0466978 0.008581103 -0.031916603 0.024623236
0003f0 f2 10 b9 3b 49 07 81 bb 34 3c 91 3c 64 a3 df bc
       0.005647772 -0.003937636 0.017728902 -0.02729959

0.bias f4 [128]
000000 ea dd 75 3c fa 12 01 bd 42 b4 d6 3c 2b 78 a3 bc
       0.015006522 -0.031512238 0.026209 -0.019954761
000010 23 4d 21 bc db 3f 7e 3c bd 62 38 3c 0e c5 19 bd
       -0.009845051 0.015518154 0.01125401 -0.03754144
000020 6b 29 12 3c 59 f5 25 3d de df 2e 3c 65 21 05 3d
       0.008921008 0.040517185 0.010673491 0.03250255
000030 12 c1 bc bc 9b 73 c4 3c 09 fd 01 bd 54 62 81 3c
       -0.023041282 0.023980906 -0.031735454 0.015793957
000040 15 20 d4 bc a6 3f d4 bc d1 ff aa bc a3 1b 3e bc
       -0.025894204 -0.025909256 -0.020873936 -0.011603269
000050 56 db 1d bd b9 4a 4c bc e9 86 58 bb 18 47 a5 3c
       -0.038539253 -0.012468987 -0.0033039397 0.020175502
000060 c8 2c d1 3c df fb 41 3c ea db ab 3c c9 ec c1 bc
       0.025534049 0.011839836 0.020978887 -0.023672478
000070 e5 b2 97 3c b8 7c 09 bd 07 13 ef 3b 27 48 ea bc
       0.01851792 -0.033566207 0.0072959694 -0.028598858
000080 37 2e 88 3c e1 72 60 3c ef 11 51 3c ac 96 89 3c
       0.0166236 0.013699264 0.012760623 0.016795479
000090 6f cc 12 bc ac 3d dd 3b c3 d6 03 3c 81 b2 f3 b8
       -0.008959874 0.0067517366 0.008046809 -0.00011620392
0000a0 50 35 b9 3c 60 ff 5d 3b 49 9d 45 bc a9 c4 7e 3c
       0.02260843 0.003387414 -0.0120614255 0.015549817
0000b0 8a 7a 52 3b 79 16 9c 3c c7 a1 05 3c ea 54 b7 3c
       0.0032116496 0.019053685 0.0081562465 0.022379357
0000c0 4b a1 07 3d 47 2f 91 bc b2 5f 5d bb 48 c6 82 bc
       0.033112805 -0.017722739 -0.0033778963 -0.015963688
0000d0 9f 79 e8 bc 4b aa df 3a ce 4c 46 3c 70 a4 38 3c
       -0.028378306 0.0017064301 0.012103273 0.011269674
0000e0 5c 2f 8f bb 6a c2 e7 bc 2e 02 c5 bc 54 18 e6 3c
       -0.0043696593 -0.028290946 -0.02404889 0.028087772
0000f0 38 84 06 bd e5 7e a7 bc 91 c1 81 3c f4 54 2c b8
       -0.032840937 -0.02044625 0.01583937 -4.1087114e-05
000100 37 a0 99 bc d6 a1 07 3c 23 63 9c bb f0 58 be bc
       -0.018753154 0.008278331 -0.00477256 -0.023235768
000110 d6 6c e0 bc fd be 59 bc 81 89 e9 3c 05 29 f0 bc
       -0.027395647 -0.013290164 0.02850795 -0.029316435
000120 5f 08 37 3c 2e d2 01 bd d8 73 b3 3c 13 48 83 bc
       0.011171429 -0.031694584 0.021905825 -0.016025579
000130 87 0e b1 3a 3b 74 80 bb 79 03 da bc 7a 14 dd bc
       0.0013508358 -0.0039201058 -0.026612984 -0.026987303
000140 c4 f3 32 3c cf 15 bd 3c cd ad e4 bc 61 15 d7 bb
       0.010922376 0.023081688 -0.027914906 -0.006563828
000150 88 b2 03 3d 15 ab 07 bd 98 43 a5 3c 45 62 87 3c
       0.032152683 -0.03312214 0.020173833 0.01652635
000160 86 99 3d 3b 19 bc 03 3c 98 00 6b 3a 7e fa 9e bc
       0.0028930618 0.008040451 0.0008964627 -0.019406553
000170 fa e0 cc bc e2 98 13 ba 8b 63 96 bc eb 6b 43 3b
       -0.025009621 -0.00056303863 -0.018358013 0.0029818963
000180 76 eb 6b 3c 00 b0 06 3d 05 69 9c bc d2 87 20 3c
       0.0143994 0.03288269 -0.019093046 0.009798007
000190 5f 38 f4 3c 61 bd 8c bb 41 8e 00 3c 37 3e b7 3c
       0.029812036 -0.0042950367 0.007846416 0.022368534
0001a0 c9 d1 bb bb a0 6b b0 3c f3 c0 bb bc 72 07 c5 bc
       -0.0057317954 0.021535695 -0.022919154 -0.024051402
0001b0 d0 9b 84 bb 98 8e 57 bb ab a3 a8 3c 49 ac 25 3c
       -0.0040468946 -0.003289139 0.020585855 0.010111877
0001c0 8d a4 a9 3c 53 50 c6 bc 6f 17 1c 3c e9 fd e2 bc
       0.020708347 -0.024208223 0.009527071 -0.027708964
0001d0 cf 1a 3a bc 0c dd 27 bc 87 3c f0 3c 20 4c 94 3c
       -0.011358931 -0.010245573 0.029325737 0.018102705
0001e0 ab 73 96 bb 60 f0 ee bc db ed 9a 3c 29 10 02 3c
       -0.0045914254 -0.029167354 0.018912246 0.007938423
0001f0 2b ac 73 3b e1 b7 72 bc 4f 2e 04 bd 9f 39 88 bc
       0.0037181478 -0.014814348 -0.032270726 -0.016629038

2.weight f4 [64, 128]
000000 be 01 93 bd 96 16 f4 3c 7e f8 b0 3c 2d e2 ba bd
       -0.07178067 0.029795926 0.021602865 -0.09125171
000010 56 51 63 bd f8 b0 73 3d 17 1e 09 3c 1a 4b 58 3d
       -0.05549749 0.059494942 0.00836899 0.052805997
000020 18 53 4f 3b ad 00 84 3d a3 c5 46 bc 22 32 ed bc
       0.003163522 0.064454414 -0.012132081 -0.02895457
000030 58 71 b0 bc a1 84 88 bc 84 a7 60 3d 92 1f 03 bd
       -0.021538422 -0.016664805 0.054847255 -0.03201253
000040 fb 63 b0 3b f8 79 31 3d 77 05 74 bd 4b 6c 75 bb
       0.0053830124 0.04332921 -0.059575524 -0.003744858
000050 b8 ee 27 bd 99 70 9c 3d 69 fd cb bc 9d 00 4f bd
       -0.040999144 0.07638664 -0.024901109 -0.050537694
000060 2d 98 92 bd c5 21 99 bc 61 ca 0d 3d 79 4f b5 bc
       -0.071579315 -0.01869286 0.03461683 -0.022132622
000070 2c 2d a2 3d a3 a7 ad bd c6 87 35 3d 68 58 7f 3d
       0.07918772 -0.0847924 0.044318937 0.06234017
000080 c3 ef 7a bc 1b ed 92 3d b7 ef d9 bc 24 67 8e bd
       -0.015315953 0.071741305 -0.026603563 -0.06953266
000090 1f e2 10 3d c0 78 1f 3b 24 96 5a b9 8c 6a 9e bc
       0.035371896 0.0024333447 -0.00020846032 -0.019337915
0000a0 1b 5d 6d 3d e2 3e cc bc ee 31 a0 bd 69 1f 17 3d
       0.05795012 -0.024932329 -0.07822023 0.03689519
0000b0 5c 94 46 bd 1a c6 8e bb 3e e7 71 3d ee 49 94 3d
       -0.04848133 -0.0043571116 0.05905842 0.072406635
0000c0 df 3d 8f bc d3 10 23 3d d8 d0 f0 3c 8f e3 64 bd
       -0.017485557 0.039810967 0.02939646 -0.05588108
0000d0 b9 41 83 3d 83 ba 77 3c c9 eb ec bb e4 25 fd bc
       0.0640902 0.015120151 -0.007230256 -0.030901857
0000e0 b6 3d 19 bd aa e7 c9 bc 0e af 84 3d 21 31 27 3d
       -0.037412368 -0.024646599 0.064787015 0.040818337
0000f0 ca 36 8d bd 17 5d 8d bd 35 eb 87 bd 1f 72 d7 bb
       -0.06895216 -0.06902521 -0.06636659 -0.0065748836
000100 33 df 5e bd 6f 6e 98 3d f9 91 90 bd 46 1c 54 3d
       -0.054412078 0.074429385 -0.07059092 0.051784776
000110 fd 78 b5 bd f1 8b ec 3c cb 6e 85 3d c8 0d 89 bd
       -0.08860967 0.028875323 0.06515273 -0.06692082
000120 10 fe 48 3d b0 04 8b 3c 5d ea 37 bd b6 c7 60 bd
       0.049070418 0.016970009 -0.04490124 -0.05487796
000130 32 f9 80 3c 8c 59 0f bd d1 5c 5e 3d 9b 80 82 bd
       0.015743826 -0.034997508 0.054287735 -0.06372186
000140 08 97 f3 3c 3c 4d 7a 3d 50 f5 51 bc d1 c4 02 3d
       0.029735103 0.061108813 -0.012814835 0.03192598
000150 f8 23 77 3d 10 cf 90 3d 7e 2c 79 bd 03 a2 1f bd
       0.060337037 0.07070744 -0.060833447 -0.038972866
000160 2f 12 44 3c 8c cc 06 bd 71 7d 90 bc c3 f0 8f bd
       0.011967226 -0.032909915 -0.01763794 -0.070283435
000170 75 01 8e bd 0e 57 85 bd fd 1d a4 3d 8c 6d 9b bd
       -0.06933872 -0.06510745 0.08013532 -0.07589254
000180 ac 15 41 bd 46 fb af 3c 3c 04 9d 3c 66 a1 6e bd
       -0.04713981 0.021482121 0.019167058 -0.05825939
000190 89 a5 27 bc a3 2f 6b 3d f4 37 a4 bd bd 0f 41 bc
       -0.010232338 0.057418477 -0.08018485 -0.011783537
0001a0 9c c8 54 3b 12 6d 4e 3d 5c 4c 64 3d 53 6f d3 bc
       0.0032468205 0.050396986 0.055736884 -0.02580992
0001b0 51 67 54 3d 20 13 0e bd b5 0b 96 bd 2c 3b 30 bd
       0.051856343 -0.034686208 -0.07326452 -0.04302518
0001c0 cb e7 98 3d cc ac 94 3d 94 7a db bc 3c 87 3e bd
       0.07466086 0.07259521 -0.026791848 -0.04651569
0001d0 91 17 0e 3c 4c c6 43 bd cc db 9f 3d 31 b9 ce bd
       0.008672611 -0.047796533 0.07805595 -0.10093916
0001e0 d9 ab f0 3c 1a 69 3c bd 30 94 2f 3b 8f 3c 92 bc
       0.029378818 -0.04599867 0.0026791207 -0.017851142
0001f0 a6 9f 9b bd cf ed 64 bd 55 e1 4a 3d 38 0b 4e bc
       -0.0759881 -0.055890854 0.0495313 -0.012575917
000200 8e 09 24 bd 64 35 01 3e 97 08 bb bb ba d2 72 bd
       -0.040048175 0.12618023 -0.005707811 -0.059282996
000210 97 49 e4 3c 78 08 e4 3c 5b 4c 3b be 90 0e 2d be
       0.027867122 0.02783607 -0.18290846 -0.16900086
000220 44 db 9e 3d 60 44 23 3d d0 e2 a3 bd 21 f7 5a 3b
       0.07756665 0.03986013 -0.080022454 0.003341146
000230 a5 24 90 bd 0a 9a 42 bc 00 c8 a1 3b ca 0e 1a bd
       -0.070382394 -0.011877546 0.004937172 -0.03761176
000240 6f c9 9f be 12 33 49 bc 64 eb 50 3e 66 02 d9 bd
       -0.3120837 -0.0122802425 0.20402294 -0.105961606
000250 94 e4 63 3e 52 8c c6 bc 0d fd 41 be 64 e0 1b 3e
       0.22255164 -0.024236832 -0.18944187 0.15222317
000260 d0 a4 09 bd c5 b9 2e 3e ad 1d 0a 3e 97 64 ab bd
       -0.033604443 0.17063053 0.13487883 -0.08368795
000270 1c af c5 bd dc 8a e6 3d fe be 16 3d d2 cc e0 bd
       -0.0965254 0.11256954 0.036803238 -0.109765664
000280 88 37 15 3e c4 36 f8 bd 95 fb 90 bd 9c 4d 71 bd
       0.14571965 -0.12119821 -0.070792355 -0.058911905
000290 79 9a b3 bd 70 36 80 3d 85 de 1c 3d 7d 15 23 3e
       -0.08769698 0.06260383 0.03829815 0.15926166
0002a0 c2 54 53 be a7 60 bf 3d 2b ee 0d be 22 f8 d3 3c
       -0.20637801 0.09344607 -0.13860385 0.025875155
0002b0 62 2a 6b bd 04 74 05 be 8a ec b5 bd 4b db ab 3d
       -0.057413466 -0.13032538 -0.08883007 0.08391436
0002c0 af db f9 bd db ef 87 3c ce 94 88 3d ef 2d 31 3e
       -0.122001044 0.016593864 0.06669007 0.17302679
0002d0 ed d1 dd bc ae 0b d2 bd f9 4c c1 bd 6d 82 e8 3b
       -0.02707764 -0.10256134 -0.094385095 0.007095626
0002e0 14 97 86 3d 62 c2 07 bd 29 3e e6 3d 00 9e 4f bd
       0.065717846 -0.033144362 0.11242325 -0.05068779
0002f0 18 f6 0c 3e a1 a3 3a bd d4 24 90 3c fa b8 35 bc
       0.13765752 -0.045566205 0.017595686 -0.011091465
000300 20 a1 96 bc 3a 9c 3e 3d 8d d2 8a 3d 0a 22 9b 3d
       -0.018387377 0.046535708 0.067784406 0.07574852
000310 f1 84 46 3d 6a 66 79 bd 08 22 a4 bd 56 5f 56 3e
       0.048466627 -0.060888685 -0.080143034 0.20934805
000320 56 19 8f 3d 30 83 37 3e 68 13 59 bd 9d a6 93 3b
       0.06987254 0.17921138 -0.052997023 0.004505946
000330 47 a6 d9 bd fc d5 69 3d 6a 20 87 3d 4c ac 9b be
       -0.10627418 0.057088837 0.06597979 -0.3040489
000340 1e a9 1e 3d 37 28 b9 3c e0 15 85 3d 3b b1 ec bd
       0.0387355 0.022602184 0.06498313 -0.115572415
000350 35 88 c6 bd 8b c8 3c bc 36 38 52 be 65 b3 fc bc
       -0.09693948 -0.011522423 -0.20529255 -0.03084726
000360 ea 0f aa bd 6d d6 97 bd 92 21 28 be 6c f4 90 3d
       -0.083038166 -0.07413945 -0.16419056 0.0707787
000370 61 97 26 3d 1d 6b 39 3d 7b bf 34 3e a9 92 5b 3d
       0.04067171 0.045268167 0.17651169 0.053606663
000380 35 56 b3 bd 86 2c bb 3d 3a 95 8d 3d 1c 80 76 3e
       -0.08756677 0.091393515 0.06913228 0.24072307
000390 fa ea ef 3d fe a0 83 3d d4 3a 77 bd f1 0c 8c bd
       0.1171474 0.06427191 -0.060358837 -0.06838406
0003a0 c2 c6 b8 bd 32 eb 45 3b 48 0e a3 3d db 9d b1 bd
       -0.09022285 0.0030200002 0.07961708 -0.08672687
0003b0 bf 28 28 3e af c5 d6 3d 9f 6d 11 3d 73 b0 b5 bd
       0.16421793 0.10486924 0.035504933 -0.08871546
0003c0 43 4f 0a 3d c6 99 e9 bd 20 d6 22 3d ee a8 e5 3d
       0.033766996 -0.11406283 0.039754987 0.112138614
0003d0 8f ad 30 bb 27 a5 f7 bc aa 4b 4e bc 5e 61 0c 3d
       -0.0026958918 -0.030230118 -0.012591282 0.034272544
0003e0 ee d9 84 3d be 9e 46 3d ac 34 48 3d 7a e4 b6 3b
       0.06486879 0.048491232 0.048878357 0.0055814357
0003f0 65 83 0b be a4 e2 71 3d eb 78 1b 3e 8b 11 c4 3c
       -0.13624342 0.059054032 0.15182845 0.023934146

2.bias f4 [64]
000000 e9 78 bf 3c 76 66 c8 3d 8c 51 05 3d 04 27 64 3b
       0.023373084 0.09785168 0.032548472 0.0034813294
000010 69 5a 9c 3d ab e6 4b bd b9 81 28 3d 5c d8 8d bd
       0.07634432 -0.04978053 0.04113934 -0.06926033
000020 1e 8f fa 3c 20 c4 14 bc d9 64 19 3d b7 99 19 bd
       0.030585822 -0.009079963 0.03744969 -0.03750011
000030 6f 64 fa bb 23 45 30 bc ac 36 74 3d 3b 18 ea bc
       -0.007641367 -0.010758671 0.05962245 -0.028576007
000040 6f e9 af bc a7 1c 93 3d a3 be a9 3d 61 65 48 bc
       -0.021473614 0.071831994 0.08288314 -0.012231202
000050 85 d1 ff bb da 59 a9 3d 13 ae 8f 3d 66 af c6 bc
       -0.007806959 0.08269091 0.07015624 -0.024253558
000060 e8 b7 9c 3d f4 94 a8 3c 0f 37 9d bc 95 9b 3b bd
       0.07652265 0.020578839 -0.019191293 -0.04580267
000070 ad 72 71 bb f7 7f 6c bd ba 79 4e 3d 59 06 3b 3d
       -0.0036842034 -0.057739224 0.050409056 0.04566035
000080 48 56 8b bb be c3 82 3c dd f2 b5 3c 62 51 c2 3d
       -0.004252229 0.015962478 0.022210533 0.09488179
000090 06 23 46 3d 97 ca 05 3d b2 cd 55 3d 56 13 71 3d
       0.048373245 0.032663908 0.05219812 0.05885633
0000a0 19 d5 9b 3c d8 e2 45 3d d3 57 8b bd c4 2e 87 3c
       0.019022511 0.04831204 -0.068038605 0.016501792
0000b0 2d eb 37 3d 05 05 da 3c f8 04 64 39 60 12 70 3d
       0.044902015 0.026613722 0.00021745625 0.058611274
0000c0 ad 7e 02 3e 93 bb ab bc 0d a0 9b 3d 39 4e 1d 3d
       0.12743635 -0.020963466 0.07598887 0.038404677
0000d0 84 cb 15 bc f2 a6 b2 3d 75 b2 e2 3c 36 24 87 3c
       -0.00914276 0.087232485 0.027672986 0.016496759
0000e0 5e e1 8d bd d4 3a cc 3d 28 af 3e bd 0b 25 33 3d
       -0.06927751 0.09972158 -0.04655376 0.0437365
0000f0 a5 10 a6 3d 75 19 6a bd da 2c b6 3d d0 d1 86 bc
       0.081086434 -0.057153184 0.088952735 -0.016457468

4.weight f4 [10, 64]
000000 13 b4 94 bd 78 cf 9d 3c cf 8b e3 3e 62 d7 5a be
       -0.07260909 0.019263968 0.44442603 -0.21371225
000010 f1 05 ff be e1 3a a5 bd 78 d6 3a 3e 3d 0e ee 3e
       -0.4980922 -0.08067871 0.18245876 0.46495238
000020 dc 7e 61 3e ce dd ae 3e 12 65 85 be 1e b9 1f 3d
       0.2202105 0.341536 -0.26053673 0.0389949
000030 28 f0 12 3d 80 d6 59 3e bd ee b5 bd 67 83 41 3e
       0.035873562 0.21273232 -0.08883426 0.18897782
000040 8d bc de bc af 2e 37 be cd d6 b6 3d d4 fd e6 bc
       -0.027189517 -0.17888902 0.08927689 -0.028197207
000050 34 30 08 3b 4b c5 de bc b2 00 bb 3d 1c 9e 9a bd
       0.0020780684 -0.027193686 0.09130992 -0.07549688
000060 84 67 2b be 72 1d 37 be 67 10 8c bd 8f ba 19 be
       -0.16738707 -0.17882326 -0.06839066 -0.15012573
000070 23 ef 4f 3d ff 4c 27 be 76 eb c6 be e7 91 95 3e
       0.050765168 -0.16337965 -0.38851517 0.29212877
000080 3d db 9c 3e 5a 0e 9b 3d c4 87 14 3e 75 83 b4 be
       0.30636016 0.07571097 0.14504915 -0.35256544
000090 16 7f 19 3e 68 4b f1 3c dd a0 8b bd ed 0f a6 be
       0.14989886 0.029454902 -0.068177916 -0.32434025
0000a0 c7 f8 b4 3c e8 1f 70 bd 46 4a 5d be 53 84 81 3e
       0.022091283 -0.05862418 -0.21610364 0.25296268
0000b0 0a 3a 8b bb 2b 8a 74 be ea ca 8c be d2 78 63 bd
       -0.004248862 -0.23880832 -0.2749856 -0.055535145
0000c0 d2 f1 1a 3e e0 a1 79 3e cd fc a4 be a5 f8 7d 3e
       0.1513131 0.24378157 -0.32224122 0.24801882
0000d0 6b 4c 60 be 0b db df 3d ad 5e d8 be c5 00 0b be
       -0.21904151 0.10930451 -0.42259732 -0.13574512
0000e0 a5 2a 83 bd 9a 84 be be d6 9f f4 be fb 95 32 3d
       -0.06404618 -0.37210542 -0.47778195 0.043600064
0000f0 00 08 d4 bc 76 08 ef 3c d5 41 dc 3a 78 8f 8e 3e
       -0.025882721 0.02917884 0.0016804287 0.27843833
000100 4c e1 32 bd 30 6e 17 be 38 98 81 be af 11 17 3f
       -0.04367189 -0.14788127 -0.25311446 0.5901136
000110 a7 91 91 3d 4e 62 d5 3d 2e c0 b8 be bf 9d e5 bd
       0.07107859 0.10419141 -0.3608412 -0.11211728
000120 7b f3 64 bd 5f 9e fc be 47 df dc be 7d 59 0f be
       -0.055896264 -0.49339578 -0.43139097 -0.13998981
000130 f1 75 40 3c 02 60 1a 3e 93 44 08 be f2 cb 99 bc
       0.011746869 0.15075687 -0.13307409 -0.018774007
000140 5b 05 33 3e 34 d5 bf 3d c4 d8 ee bd a3 67 ea bd
       0.17482512 0.09366837 -0.116624385 -0.114455484
000150 b8 8e a3 be 13 d1 eb 3d e0 9a bb be d2 d5 e8 bd
       -0.31944823 0.11514487 -0.36641598 -0.11368908
000160 2d 9b e2 3d ae db 08 bd df 89 28 3e dc 77 3e bd
       0.11064754 -0.033412628 0.16458844 -0.046501026
000170 4e de 92 be 3a be 8a 3c 08 36 8a 3e 4f 0f 6b 3e
       -0.2868523 0.01693641 0.26994348 0.22955059
000180 a2 0c 02 3e 74 77 78 3e 54 21 a3 be fe 60 93 be
       0.12700132 0.24264318 -0.31861365 -0.28784937
000190 95 bb 82 bd 68 a0 8a 3e fc 0a d7 bd 82 64 d9 3e
       -0.06383435 0.27075505 -0.10500142 0.42459494
0001a0 15 eb d1 3e 46 8e c7 bb db 2b 7f be 7f 95 87 3e
       0.40999666 -0.0060899584 -0.24919073 0.26481244
0001b0 2a aa 1d 3d 36 14 77 be f3 cb c9 bc 84 59 3f be
       0.03849236 -0.24128804 -0.024633383 -0.18686491
0001c0 a6 bf 4e be a2 f2 29 bd 2f 11 b2 3e 3e 7f 31 3e
       -0.20190296 -0.04149116 0.34778735 0.17333695
0001d0 e0 29 fe 3d f4 84 b8 3d 84 b7 8b 3e e7 ae 5b 3e
       0.12410331 0.09009734 0.2728845 0.21453439
0001e0 99 19 05 bd 8e 75 09 3f c9 88 a7 bd e7 e4 50 3e
       -0.032495115 0.53695 -0.081803866 0.2039982
0001f0 ef ec 83 3d f9 25 9f bb 86 f7 8e be cc 0c d2 bc
       0.06441676 -0.0048568216 -0.2792322 -0.025640868
000200 6a 1e 4e 3c 51 48 e5 be 1f 81 82 3e f0 42 19 3e
       0.012580493 -0.44781736 0.25489137 0.14966941
000210 4b 8c 98 be 3f 49 2f 3c 62 fb 0b 3e 3e c8 5b 3e
       -0.29794535 0.010698616 0.13670114 0.21463105
000220 ef 9c 84 be 44 b1 08 be 51 e9 f2 3e ec 2f 85 3e
       -0.2590098 -0.13348871 0.4744363 0.26013124
000230 09 14 ea bb 57 8d b5 3d f2 9c 39 3e 28 fa ba 3e
       -0.0071435017 0.08864849 0.18126276 0.3651898
000240 c1 cc 90 be 03 e0 f0 3e 7f be f8 bd 95 f0 fe 3d
       -0.28281215 0.47045907 -0.12145709 0.12448231
000250 64 ef d9 bd 90 b2 c9 bd d5 7b 8a be 87 a8 c0 3d
       -0.10641363 -0.09848511 -0.270476 0.09407144
000260 0d f3 e0 3d 1c b2 c4 bd 83 b6 2b 3d e5 e7 f2 3c
       0.10983858 -0.09604284 0.041922104 0.029651592
000270 52 3d 29 3f 81 61 45 3e ff df b9 3d 8a 10 a9 3e
       0.6610919 0.19275476 0.09075927 0.3302043
000280 20 8b f3 3d 7f 9e c6 bd 87 8e 9b 3e a8 e0 a3 be
       0.1189177 -0.096981995 0.30382177 -0.32007337
000290 12 ca d3 3d f4 e6 03 3e 43 99 cb 3d c4 55 8c 3e
       0.10341276 0.1288107 0.09941342 0.27409184
0002a0 f4 7e 45 be 32 83 c0 bc 7f ae f2 3d cf 9e 37 be
       -0.1928671 -0.023500059 0.11849689 -0.17931674
0002b0 a0 17 bf 3d eb 83 1f be 4b 85 b7 be 86 d5 48 3e
       0.09330678 -0.15577666 -0.35843882 0.19612703
0002c0 8f 0b 07 bf b1 27 45 3d 5c ea 56 be e4 20 2e 3e
       -0.5275201 0.048133556 -0.20987839 0.17004734
0002d0 81 51 01 3f 3e 92 dc 3d 6a b7 0a be 41 c4 5c 3e
       0.5051499 0.10770081 -0.1354653 0.2155924
0002e0 a5 4e b6 3d 73 f7 e4 3d e3 af e1 be bd 6f b3 3c
       0.08901719 0.1118001 -0.44079503 0.021903867
0002f0 27 d4 da 3d bb e5 01 3c 63 33 8c 3e d3 e8 56 3e
       0.10684996 0.007928307 0.27382955 0.20987253
000300 43 87 66 bd 3e d5 47 be ee 59 12 bd 96 ac da 3e
       -0.05628134 -0.19514939 -0.035730295 0.42709798
000310 c8 ee 0a 3e 6b 61 9f 3b fa dd 7e bc 79 60 06 3e
       0.1356765 0.004863908 -0.015555853 0.13122739
000320 ea a7 59 3c fd 20 dc 3e 69 57 d2 3e 54 4c 8b 3c
       0.013284663 0.42993918 0.41082314 0.01700417
000330 f5 bc ed 3d d4 7a 4c be 7f 7b 72 3e f1 ac 9e 3e
       0.11608306 -0.1996873 0.23679923 0.3099132
000340 12 c7 92 bd de 5a 83 be b1 5b 28 be 40 8f 5b bd
       -0.07166876 -0.25655264 -0.16441227 -0.05360341
000350 50 a4 84 3d fa 21 ab 3d ab bd 11 be 8a 34 06 3d
       0.064766526 0.0835609 -0.14232509 0.03276495
000360 4a 10 db bc 5a 6f bf 3d d0 a1 88 be 3f 61 40 3e
       -0.026741166 0.093474105 -0.26685953 0.18787096
000370 cb d4 74 be 1b 0e 91 be ba 33 0d 3f ee f8 99 bd
       -0.23909299 -0.28331074 0.55157053 -0.07518183
000380 06 fb 09 3e 8a 29 ad be 67 0c 8d 3d 62 33 08 3f
       0.13474664 -0.33820754 0.06887131 0.53203404
000390 22 33 60 3e 7a d5 e2 bd a9 05 ff 3d 9c 79 8f be
       0.21894506 -0.11075874 0.124522515 -0.28022468
0003a0 f6 4a 1e be 8a e1 62 3d b7 36 9e bd 05 d8 43 3e
       -0.15458283 0.055390872 -0.0772528 0.19125374
0003b0 b8 80 7a bb 7a 83 0e 3e 89 64 61 3e fe f7 d8 be
       -0.0038223695 0.13917342 0.22011007 -0.42376703
0003c0 ea 04 fb be 2f 19 c6 be e5 76 2a 3d aa d4 66 3d
       -0.49027187 -0.3869109 0.041617293 0.056355156
0003d0 12 b8 ce be ca 97 17 be 43 b4 85 3e 90 46 00 bd
       -0.4037481 -0.14803997 0.2611409 -0.031317294
0003e0 24 60 be 3d d4 f6 02 3d db ed 34 be c4 b8 49 3d
       0.09295681 0.031973675 -0.1766886 0.04924847
0003f0 1b 01 ee 3d d7 25 85 bb f4 49 cc be 8d 01 7a 3e
       0.116213046 -0.0040633488 -0.39900172 0.24414654

4.bias f4 [10]
000000 79 d4 8c bd 16 bb 86 3c 68 88 9c bd 46 db f7 3d
       -0.068764634 0.016446631 -0.07643205 0.1210237
000010 74 d1 83 3d 15 c8 32 bd 8b 03 91 3d a8 71 22 bd
       0.064364344 -0.043647844 0.07080754 -0.039659172
000020 74 30 48 bd 0e 12 cc 3d
       -0.048874334 0.09964381
